Metal device set to: Apple M2
Model: "Architecture2"
_________________________________________________________________
 Layer (type)                Output Shape              Param #   
=================================================================
 input_1 (InputLayer)        [(None, 224, 224, 3)]     0         
                                                                 
 rescaling (Rescaling)       (None, 224, 224, 3)       0         
                                                                 
 conv2d (Conv2D)             (None, 54, 54, 8)         2912      
                                                                 
 max_pooling2d (MaxPooling2D  (None, 26, 26, 8)        0         
 )                                                               
                                                                 
 conv2d_1 (Conv2D)           (None, 22, 22, 16)        3216      
                                                                 
 max_pooling2d_1 (MaxPooling  (None, 10, 10, 16)       0         
 2D)                                                             
                                                                 
 conv2d_2 (Conv2D)           (None, 8, 8, 32)          4640      
                                                                 
 max_pooling2d_2 (MaxPooling  (None, 3, 3, 32)         0         
 2D)                                                             
                                                                 
 flatten (Flatten)           (None, 288)               0         
                                                                 
 dense (Dense)               (None, 128)               36992     
                                                                 
 dense_1 (Dense)             (None, 5)                 645       
                                                                 
=================================================================
Total params: 48,405
Trainable params: 48,405
Non-trainable params: 0
_________________________________________________________________
Epoch 1/1000
1/5 [=====>........................] - ETA: 2s - loss: 1.5803 - accuracy: 0.28003/5 [=================>............] - ETA: 0s - loss: 1.5907 - accuracy: 0.22675/5 [==============================] - 1s 28ms/step - loss: 1.5800 - accuracy: 0.2280
…
