Metal device set to: Apple M2
Model: "Architecture3"
_________________________________________________________________
 Layer (type)                Output Shape              Param #   
=================================================================
 input_1 (InputLayer)        [(None, 224, 224, 3)]     0         
                                                                 
 rescaling (Rescaling)       (None, 224, 224, 3)       0         
                                                                 
 conv2d (Conv2D)             (None, 54, 54, 8)         2912      
                                                                 
 conv2d_1 (Conv2D)           (None, 50, 50, 16)        3216      
                                                                 
 conv2d_2 (Conv2D)           (None, 48, 48, 32)        4640      
                                                                 
 conv2d_3 (Conv2D)           (None, 46, 46, 64)        18496     
                                                                 
 max_pooling2d (MaxPooling2D  (None, 22, 22, 64)       0         
 )                                                               
                                                                 
 flatten (Flatten)           (None, 30976)             0         
                                                                 
 dense (Dense)               (None, 128)               3965056   
                                                                 
 dense_1 (Dense)             (None, 5)                 645       
                                                                 
=================================================================
Total params: 3,994,965
Trainable params: 3,994,965
Non-trainable params: 0
_________________________________________________________________
Epoch 1/1000
1/5 [=====>........................] - ETA: 1s - loss: 1.6050 - accuracy: 0.2000
…
