Metal device set to: Apple M2
Model: "Architecture1"
_________________________________________________________________
 Layer (type)                Output Shape              Param #   
=================================================================
 input_1 (InputLayer)        [(None, 224, 224, 3)]     0         
                                                                 
 rescaling (Rescaling)       (None, 224, 224, 3)       0         
                                                                 
 conv2d (Conv2D)             (None, 54, 54, 8)         2912      
                                                                 
 max_pooling2d (MaxPooling2D  (None, 26, 26, 8)        0         
 )                                                               
                                                                 
 conv2d_1 (Conv2D)           (None, 22, 22, 16)        3216      
                                                                 
 max_pooling2d_1 (MaxPooling  (None, 10, 10, 16)       0         
 2D)                                                             
                                                                 
 flatten (Flatten)           (None, 1600)              0         
                                                                 
 dense (Dense)               (None, 128)               204928    
                                                                 
 dense_1 (Dense)             (None, 5)                 645       
                                                                 
=================================================================
Total params: 211,701
Trainable params: 211,701
Non-trainable params: 0
_________________________________________________________________
Epoch 1/1000
1/5 [=====>........................] - ETA: 2s - loss: 1.6091 - accuracy: 0.24004/5 [=======================>......] - ETA: 0s - loss: 1.6299 - accuracy: 0.24505/5 [==============================] - 1s 22ms/step - loss: 1.6174 - accuracy: 0.2320
…
