Metal device set to: Apple M2
Model: "Architecture1"
_________________________________________________________________
 Layer (type)                Output Shape              Param #   
=================================================================
 input_1 (InputLayer)        [(None, 224, 224, 3)]     0         
                                                                 
 rescaling (Rescaling)       (None, 224, 224, 3)       0         
                                                                 
 conv2d (Conv2D)             (None, 54, 54, 8)         2912      
                                                                 
 conv2d_1 (Conv2D)           (None, 50, 50, 16)        3216      
                                                                 
 max_pooling2d (MaxPooling2D  (None, 24, 24, 16)       0         
 )                                                               
                                                                 
 flatten (Flatten)           (None, 9216)              0         
                                                                 
 dense (Dense)               (None, 128)               1179776   
                                                                 
 dense_1 (Dense)             (None, 5)                 645       
                                                                 
=================================================================
Total params: 1,186,549
Trainable params: 1,186,549
Non-trainable params: 0
_________________________________________________________________
Epoch 1/1000
1/5 [=====>........................] - ETA: 2s - loss: 1.6164 - accuracy: 0.3400
…
