Model: "sequential"
_________________________________________________________________
 Layer (type)                Output Shape              Param #   
=================================================================
 masking (Masking)           (None, 200, 2)            0         
                                                                 
 simple_rnn (SimpleRNN)      (None, 200, 10)           130       
                                                                 
 simple_rnn_1 (SimpleRNN)    (None, 200, 15)           390       
                                                                 
 flatten (Flatten)           (None, 3000)              0         
                                                                 
 dense (Dense)               (None, 200)               600200    
                                                                 
 dropout (Dropout)           (None, 200)               0         
                                                                 
 dense_1 (Dense)             (None, 5)                 1005      
                                                                 
=================================================================
Total params: 601,725
Trainable params: 601,725
Non-trainable params: 0
_________________________________________________________________
Epoch 1/10000
11/11 - 1s - loss: 2.5967 - accuracy: 0.2332 - 1s/epoch - 113ms/step
Epoch 2/10000
11/11 - 0s - loss: 1.6547 - accuracy: 0.2653 - 301ms/epoch - 27ms/step
…
