Model: "sequential"
_________________________________________________________________
 Layer (type)                Output Shape              Param #   
=================================================================
 masking (Masking)           (None, 79, 39)            0         
                                                                 
 simple_rnn (SimpleRNN)      (None, 79, 32)            2304      
                                                                 
 simple_rnn_1 (SimpleRNN)    (None, 79, 16)            784       
                                                                 
 flatten (Flatten)           (None, 1264)              0         
                                                                 
 dense (Dense)               (None, 5)                 6325      
                                                                 
=================================================================
Total params: 9,413
Trainable params: 9,413
Non-trainable params: 0
_________________________________________________________________
Epoch 1/10000
62/62 - 2s - loss: 1.3171 - accuracy: 0.4332 - 2s/epoch - 25ms/step
Epoch 2/10000
62/62 - 1s - loss: 0.9962 - accuracy: 0.5907 - 670ms/epoch - 11ms/step
…
