Model: "model"
_________________________________________________________________
 Layer (type)                Output Shape              Param #   
=================================================================
 input_1 (InputLayer)        [(None, 200, 2)]          0         
                                                                 
 masking (Masking)           (None, 200, 2)            0         
                                                                 
 simple_rnn (SimpleRNN)      (None, 200, 10)           130       
                                                                 
 simple_rnn_1 (SimpleRNN)    (None, 200, 15)           390       
                                                                 
 flatten (Flatten)           (None, 3000)              0         
                                                                 
 dense (Dense)               (None, 200)               600200    
                                                                 
 dropout (Dropout)           (None, 200)               0         
                                                                 
 dense_1 (Dense)             (None, 5)                 1005      
                                                                 
=================================================================
Total params: 601,725
Trainable params: 601,725
Non-trainable params: 0
_________________________________________________________________
Epoch 1/10000
11/11 - 1s - loss: 2.2008 - accuracy: 0.3090 - 1s/epoch - 112ms/step
Epoch 2/10000
11/11 - 0s - loss: 1.2765 - accuracy: 0.4840 - 296ms/epoch - 27ms/step
…
