Model: "model"
_________________________________________________________________
 Layer (type)                Output Shape              Param #   
=================================================================
 input_1 (InputLayer)        [(None, 200, 2)]          0         
                                                                 
 masking (Masking)           (None, 200, 2)            0         
                                                                 
 lstm (LSTM)                 (None, 200, 10)           520       
                                                                 
 lstm_1 (LSTM)               (None, 200, 15)           1560      
                                                                 
 flatten (Flatten)           (None, 3000)              0         
                                                                 
 dense (Dense)               (None, 200)               600200    
                                                                 
 dropout (Dropout)           (None, 200)               0         
                                                                 
 dense_1 (Dense)             (None, 5)                 1005      
                                                                 
=================================================================
Total params: 603,285
Trainable params: 603,285
Non-trainable params: 0
_________________________________________________________________
Epoch 1/10000
11/11 - 3s - loss: 1.5328 - accuracy: 0.3003 - 3s/epoch - 318ms/step
Epoch 2/10000
11/11 - 0s - loss: 1.2429 - accuracy: 0.5481 - 483ms/epoch - 44ms/step
…
