Model: "model"
_________________________________________________________________
 Layer (type)                Output Shape              Param #   
=================================================================
 input_1 (InputLayer)        [(None, 79, 39)]          0         
                                                                 
 masking (Masking)           (None, 79, 39)            0         
                                                                 
 simple_rnn (SimpleRNN)      (None, 79, 64)            6656      
                                                                 
 simple_rnn_1 (SimpleRNN)    (None, 32)                3104      
                                                                 
 dense (Dense)               (None, 128)               4224      
                                                                 
 dropout (Dropout)           (None, 128)               0         
                                                                 
 dense_1 (Dense)             (None, 5)                 645       
                                                                 
=================================================================
Total params: 14,629
Trainable params: 14,629
Non-trainable params: 0
_________________________________________________________________
Epoch 1/10000
62/62 - 2s - loss: 1.5351 - accuracy: 0.3129 - 2s/epoch - 29ms/step
Epoch 2/10000
62/62 - 1s - loss: 1.3825 - accuracy: 0.3690 - 832ms/epoch - 13ms/step
…
