Model: "sequential"
_________________________________________________________________
 Layer (type)                Output Shape              Param #   
=================================================================
 masking (Masking)           (None, 79, 39)            0         
                                                                 
 simple_rnn (SimpleRNN)      (None, 79, 32)            2304      
                                                                 
 simple_rnn_1 (SimpleRNN)    (None, 79, 16)            784       
                                                                 
 flatten (Flatten)           (None, 1264)              0         
                                                                 
 dense (Dense)               (None, 20)                25300     
                                                                 
 dropout (Dropout)           (None, 20)                0         
                                                                 
 dense_1 (Dense)             (None, 5)                 105       
                                                                 
=================================================================
Total params: 28,493
Trainable params: 28,493
Non-trainable params: 0
_________________________________________________________________
Epoch 1/10000
62/62 - 2s - loss: 1.4126 - accuracy: 0.3746 - 2s/epoch - 25ms/step
Epoch 2/10000
62/62 - 1s - loss: 1.1504 - accuracy: 0.4903 - 672ms/epoch - 11ms/step
…
