Model: "model"
_________________________________________________________________
 Layer (type)                Output Shape              Param #   
=================================================================
 input_1 (InputLayer)        [(None, 200, 2)]          0         
                                                                 
 masking (Masking)           (None, 200, 2)            0         
                                                                 
 lstm (LSTM)                 (None, 200, 10)           520       
                                                                 
 lstm_1 (LSTM)               (None, 200, 5)            320       
                                                                 
 flatten (Flatten)           (None, 1000)              0         
                                                                 
 dense (Dense)               (None, 5)                 5005      
                                                                 
=================================================================
Total params: 5,845
Trainable params: 5,845
Non-trainable params: 0
_________________________________________________________________
Epoch 1/10000
11/11 - 3s - loss: 1.5945 - accuracy: 0.2303 - 3s/epoch - 308ms/step
Epoch 2/10000
11/11 - 0s - loss: 1.5195 - accuracy: 0.5160 - 478ms/epoch - 43ms/step
…
