Model: "model"
_________________________________________________________________
 Layer (type)                Output Shape              Param #   
=================================================================
 input_1 (InputLayer)        [(None, 200, 2)]          0         
                                                                 
 masking (Masking)           (None, 200, 2)            0         
                                                                 
 simple_rnn (SimpleRNN)      (None, 200, 64)           4288      
                                                                 
 simple_rnn_1 (SimpleRNN)    (None, 32)                3104      
                                                                 
 dense (Dense)               (None, 200)               6600      
                                                                 
 dropout (Dropout)           (None, 200)               0         
                                                                 
 dense_1 (Dense)             (None, 5)                 1005      
                                                                 
=================================================================
Total params: 14,997
Trainable params: 14,997
Non-trainable params: 0
_________________________________________________________________
Epoch 1/10000
11/11 - 1s - loss: 1.6371 - accuracy: 0.2041 - 1s/epoch - 117ms/step
Epoch 2/10000
11/11 - 0s - loss: 1.6158 - accuracy: 0.2128 - 352ms/epoch - 32ms/step
…
