Model: "model"
_________________________________________________________________
 Layer (type)                Output Shape              Param #   
=================================================================
 input_1 (InputLayer)        [(None, 79, 39)]          0         
                                                                 
 masking (Masking)           (None, 79, 39)            0         
                                                                 
 lstm (LSTM)                 (None, 79, 64)            26624     
                                                                 
 lstm_1 (LSTM)               (None, 32)                12416     
                                                                 
 dense (Dense)               (None, 128)               4224      
                                                                 
 dropout (Dropout)           (None, 128)               0         
                                                                 
 dense_1 (Dense)             (None, 5)                 645       
                                                                 
=================================================================
Total params: 43,909
Trainable params: 43,909
Non-trainable params: 0
_________________________________________________________________
Epoch 1/10000
62/62 - 5s - loss: 1.4051 - accuracy: 0.3573 - 5s/epoch - 76ms/step
Epoch 2/10000
62/62 - 2s - loss: 1.0766 - accuracy: 0.5331 - 2s/epoch - 28ms/step
…
