Model: "sequential"
_________________________________________________________________
 Layer (type)                Output Shape              Param #   
=================================================================
 masking (Masking)           (None, 200, 2)            0         
                                                                 
 simple_rnn (SimpleRNN)      (None, 200, 10)           130       
                                                                 
 simple_rnn_1 (SimpleRNN)    (None, 200, 5)            80        
                                                                 
 flatten (Flatten)           (None, 1000)              0         
                                                                 
 dense (Dense)               (None, 5)                 5005      
                                                                 
=================================================================
Total params: 5,215
Trainable params: 5,215
Non-trainable params: 0
_________________________________________________________________
Epoch 1/10000
11/11 - 1s - loss: 1.4996 - accuracy: 0.3382 - 1s/epoch - 110ms/step
Epoch 2/10000
11/11 - 0s - loss: 1.2162 - accuracy: 0.5510 - 292ms/epoch - 27ms/step
…
