Model: "model"
_________________________________________________________________
 Layer (type)                Output Shape              Param #   
=================================================================
 input_1 (InputLayer)        [(None, 200, 2)]          0         
                                                                 
 masking (Masking)           (None, 200, 2)            0         
                                                                 
 lstm (LSTM)                 (None, 200, 10)           520       
                                                                 
 lstm_1 (LSTM)               (None, 5)                 320       
                                                                 
 flatten (Flatten)           (None, 5)                 0         
                                                                 
 dense (Dense)               (None, 5)                 30        
                                                                 
=================================================================
Total params: 870
Trainable params: 870
Non-trainable params: 0
_________________________________________________________________
Epoch 1/10000
11/11 - 3s - loss: 1.6174 - accuracy: 0.2216 - 3s/epoch - 310ms/step
Epoch 2/10000
11/11 - 0s - loss: 1.6065 - accuracy: 0.3061 - 474ms/epoch - 43ms/step
…
