Model: "model"
_________________________________________________________________
 Layer (type)                Output Shape              Param #   
=================================================================
 input_1 (InputLayer)        [(None, 200, 2)]          0         
                                                                 
 masking (Masking)           (None, 200, 2)            0         
                                                                 
 lstm (LSTM)                 (None, 200, 64)           17152     
                                                                 
 lstm_1 (LSTM)               (None, 32)                12416     
                                                                 
 dense (Dense)               (None, 200)               6600      
                                                                 
 dropout (Dropout)           (None, 200)               0         
                                                                 
 dense_1 (Dense)             (None, 5)                 1005      
                                                                 
=================================================================
Total params: 37,173
Trainable params: 37,173
Non-trainable params: 0
_________________________________________________________________
Epoch 1/10000
11/11 - 4s - loss: 1.6065 - accuracy: 0.1924 - 4s/epoch - 344ms/step
Epoch 2/10000
11/11 - 1s - loss: 1.5905 - accuracy: 0.1924 - 754ms/epoch - 69ms/step
…
